std_mha_model.onnx (onnx, 12992 bytes, 4 tensors)

li.bias f4 [20]
000000 a5 2f 08 3e 41 16 77 bd 90 d0 62 be b6 8c 02 3e
       0.13299425 -0.060323957 -0.22149873 0.1274899
000010 d9 f2 14 be 2f 49 02 3e 1c 4d 30 3e ea 40 1b be
       -0.14545764 0.1272323 0.17216915 -0.15161481
000020 d8 6a c0 bc 45 d5 0c 3d e6 56 43 3e 7a db 2b bd
       -0.023488447 0.034383077 0.19076118 -0.041957356
000030 0b ca 81 bd 9d 02 a8 3d 4f ec 51 be 82 c3 10 3e
       -0.06337365 0.082036234 -0.20500301 0.1413708
000040 7b 3d 44 be dd d2 ed 3d 8b 0c d3 3b 7d 2d 5d bd
       -0.19164078 0.116124846 0.006440704 -0.05399846

onnx::MatMul_104 f4 [20, 20]
000000 e7 48 5e 3e c7 07 8d 3d 1c 70 88 bd 2d 68 f5 bc
       0.21707498 0.06886249 -0.06662008 -0.029956901
000010 8a ad 05 be 8e 8c 10 be 9d 2c 3a bd fc 4b 52 3e
       -0.13054481 -0.14116117 -0.045452703 0.20536798
000020 0f 36 a8 bd 79 d0 52 be 5f 7b eb bd 07 79 f4 bc
       -0.08213436 -0.20587339 -0.114981405 -0.029842867
000030 bb 67 42 be ae 8e f7 3d db de 2a be 87 54 22 3e
       -0.18984883 0.12087761 -0.16686575 0.15852557
000040 8b de 00 3e 80 aa 66 bd c2 28 1c bc 25 e1 99 3c
       0.12584893 -0.056314945 -0.009531202 0.018784115
000050 2a cf 95 3d 67 7b 24 3e 58 5d 5e 3e 61 9e d4 bd
       0.07314904 0.160627 0.21715295 -0.10381771
000060 49 62 0b be 88 d7 54 be 18 a4 57 3e 9c 1c 40 3d
       -0.13611712 -0.20785344 0.2105869 0.046902284
000070 20 1d ec bd 14 43 38 3e 3c 91 b0 bd 2f 00 53 3e
       -0.11528993 0.17994338 -0.08621451 0.20605539
000080 46 df 4f be 0d 33 af 3c ef 55 27 be be b5 3b be
       -0.20300016 0.021386648 -0.16341375 -0.18331048
000090 4e 1d cd bc 10 0c 12 bc 47 ef 05 3d d5 52 30 3d
       -0.025038388 -0.008914009 0.032698896 0.043047745
0000a0 58 1c 28 be 39 5b e1 3d 8a b2 e6 3d 2c 1a db 3d
       -0.16417062 0.110037275 0.112645224 0.10698351
0000b0 5b cd 56 3d de d7 c1 bd a6 d4 55 3e 74 e5 a2 bd
       0.052441936 -0.094650015 0.208819 -0.07953921
0000c0 1f b2 d1 bc d1 94 8d bd 49 85 a2 3c 00 3b 54 be
       -0.02559763 -0.0691315 0.019838946 -0.20725632
0000d0 9a 8b f6 bd 3e 21 7a bd ae d9 20 3e 3b e7 46 3e
       -0.12038346 -0.06106686 0.15708038 0.19424145
0000e0 0b 03 53 bc 37 8b 27 be f8 d2 88 3d 27 35 41 bd
       -0.0128791435 -0.163617 0.06680864 -0.04716983
0000f0 9d bc 62 3e ab 54 1b 3d 3a ec 4e be f3 50 2b 3d
       0.22142263 0.037922543 -0.20207301 0.041825246
000100 77 54 5d be a0 a2 18 be 64 7a a5 bd 17 61 8b 3d
       -0.21614252 -0.14905787 -0.08079985 0.06805628
000110 ad 9f 3a 3e 43 d8 ac bc 1e de 33 bc 09 cb 4e be
       0.18224974 -0.021099215 -0.01097825 -0.2019464
000120 53 36 92 bd f0 c7 41 be 5c eb 20 3e d1 97 92 bd
       -0.07139268 -0.18923926 0.15714782 -0.07157863
000130 20 43 0e be dc a6 59 be d6 ef 17 be 79 21 9a bd
       -0.13892794 -0.21255058 -0.14837584 -0.07525916
000140 f1 1b 7f 3d eb 2f ae bd 97 90 29 3d c4 dc 7a 3c
       0.062282506 -0.085052334 0.041397657 0.015311424
000150 85 d3 a1 3c fa 0c 59 bd 13 b6 38 3e 52 87 64 be
       0.01975418 -0.05299089 0.18038206 -0.22317246
000160 91 fa 7c bd 9e 1b 50 be 84 9c 60 3e 7f 36 36 3e
       -0.061762396 -0.20323035 0.21934706 0.17794226
000170 a9 fe e6 bd f1 4b 36 be 4d 35 17 3d 6d 5d 62 3e
       -0.11279041 -0.17802407 0.036916066 0.22105952
000180 fd c6 1f be 4b a5 e8 bd 2d 50 3f 3e 38 a0 09 be
       -0.15603252 -0.11359652 0.18682928 -0.13440025
000190 1d dc fd 3d 69 58 38 3d 94 06 1d 3d cc 59 ef 3c
       0.12395499 0.04500619 0.03833635 0.029217623
0001a0 20 d5 28 be 44 e9 5a be f5 1e 83 3d 18 65 38 be
       -0.1648755 -0.21378046 0.06402389 -0.18007314
0001b0 83 0e e8 3d fb 02 42 3d 8e fd 01 3d 91 88 61 be
       0.11330893 0.047366124 0.03173595 -0.22024752
0001c0 1d 2b 28 3e 17 b8 c3 bd c7 f5 41 be db db 87 3d
       0.16422696 -0.09556597 -0.18941413 0.06633731
0001d0 93 df f2 3d 1b 48 c2 3d 0f e1 80 bd a0 eb 4d be
       0.1185905 0.09486409 -0.062929265 -0.20109415
0001e0 6f 51 59 3e 42 65 e0 3d 42 f3 07 be 46 0f 11 3d
       0.2122247 0.109568134 -0.13276389 0.035414957
0001f0 12 cd 96 3d 0f 9f 10 be ce 4a 30 be 5d 0a 43 bd
       0.07363333 -0.14123176 -0.17216036 -0.047617305
000200 40 5d da 3b 04 fd c1 bd 96 ab 97 3c 0a 46 43 be
       0.0066639483 -0.09472087 0.018514436 -0.19069687
000210 e1 21 c9 3d fa 18 13 3e 86 e7 59 3c bd 83 11 3e
       0.09820915 0.14364997 0.013299828 0.1421041
000220 1c d1 a5 bd b0 20 10 3d 3c 37 f6 3c 33 da 48 3e
       -0.08096525 0.035187423 0.030055635 0.19614486
000230 49 b1 59 be 99 3f 26 3e 5c d2 0b bd d1 8b f8 bd
       -0.21259035 0.16235198 -0.03413616 -0.12136043
000240 c8 3d b6 3d 68 db 37 3e 79 f6 76 3c 51 bb 26 be
       0.088985026 0.1795479 0.015073412 -0.16282393
000250 c8 59 ee 3d 31 14 2f 3b 7d 0c 0d be 72 b7 48 be
       0.11638218 0.0026714916 -0.13774295 -0.19601229
000260 99 99 33 3e 89 69 c3 bd e0 de c4 bd fc f1 19 be
       0.17539062 -0.095416136 -0.096128225 -0.15033716
000270 37 f5 83 bd df d4 54 3d f0 b6 4e 3e 38 eb 2f 3d
       -0.064432554 0.051960822 0.20186973 0.04294893
000280 a8 29 dc bb e7 c2 fc 3d c9 fc b7 3d f9 e3 a3 bd
       -0.006718833 0.12341862 0.08983762 -0.08002467
000290 9d 48 60 be 60 8d 75 3d 2a b0 0c 3e 3f 9a 02 3d
       -0.219027 0.05994928 0.13739076 0.03188538
0002a0 b7 5f 54 be bc 4a 31 3e 04 61 17 be 09 62 05 be
       -0.20739637 0.17313665 -0.14783102 -0.13025679
0002b0 57 aa e9 3d d8 4d 74 3d 7c a2 69 bd 90 d5 35 be
       0.11409443 0.05964455 -0.057039723 -0.17757249
0002c0 80 da 5b bd e7 7f bf 3d 98 d3 86 bd a7 08 3b 3e
       -0.053675175 0.09350567 -0.06583327 0.1826502
0002d0 b6 7a a4 bd 4b a2 40 be b5 5b a1 bd aa ab 83 3c
       -0.08031218 -0.1881191 -0.0787882 0.016073067
0002e0 ed b2 7c 3d b4 9e 54 3e c8 71 0e be 67 18 8a bd
       0.061694074 0.20763665 -0.13910592 -0.06742936
0002f0 12 ea 45 3e ab 9c 1a 3e 52 00 ec bc 35 65 e4 bc
       0.19327572 0.15098827 -0.028808746 -0.02788029
000300 ca 68 19 3d 79 26 0d 3e 91 18 3e 3e 12 4a ee 3d
       0.03745345 0.13784207 0.18564059 0.116352215
000310 67 fb 3e bd 2a 5e a6 3b 1c 25 e1 3b b4 81 2a be
       -0.046626475 0.005077143 0.006870879 -0.1665104
000320 66 ed e4 3d 4c aa 3e be 67 66 23 3e f6 ff cf bd
       0.11178093 -0.1861965 0.15957032 -0.101562425
000330 da d6 f1 bc 30 be 64 be 8f 7d 22 be ba eb d8 3d
       -0.029521395 -0.22338176 -0.1586821 0.10591836
000340 7a 44 90 bd 5d 1f 3c 3e cd 90 0b 3e 3d 8c 06 3e
       -0.07044311 0.18371339 0.13629456 0.13139434
000350 be 90 5d be 32 28 ee bd 0e e4 1a 3e a3 4b c7 bc
       -0.21637246 -0.116287604 0.15126058 -0.024328059
000360 b4 8d 5d 3e 7e 03 a8 bd 1c ab 5a 3e 27 4e 67 bd
       0.21636087 -0.08203791 0.21354336 -0.056471016
000370 8e 9e 83 3d e0 18 36 bd 23 9a 0a 3e 4d c7 2b be
       0.06426726 -0.044457316 0.13535361 -0.16775246
000380 54 54 91 3d 65 76 53 3e 1a 5a 4f 3d f7 98 04 3d
       0.070961624 0.20650633 0.050623037 0.03237244
000390 65 1e 04 be 1c 7d 56 3e 2c 19 5b be 17 8a fc ba
       -0.1290222 0.20946163 -0.21396321 -0.0019267228
0003a0 f0 5e 21 3d 1c 7d 34 be b3 b6 eb bc c8 fe fa 3d
       0.03939718 -0.1762585 -0.028773641 0.12255627
0003b0 98 55 f8 3c 1d 86 4d 3e 61 e7 3f 3e 3a 26 df 3c
       0.030314252 0.20070691 0.18740608 0.027239908
0003c0 0a 29 a4 bd 7b 12 2a 3c c4 67 a6 bd 09 59 be bd
       -0.0801564 0.010380383 -0.081252605 -0.09294326
0003d0 ad e2 57 3e 04 cf 4e bd c6 58 d7 bd 85 27 97 3d
       0.21082564 -0.050490394 -0.10514979 0.073805846
0003e0 f4 6c dd 3d b4 1f 85 3d 80 15 f0 bd d9 4c 54 be
       0.10811797 0.065001875 -0.11722851 -0.2073244
0003f0 ad 98 0a be af df a4 3d 8c 26 e0 bd b8 cc 3c 3d
       -0.13534804 0.08050477 -0.10944852 0.046093673

onnx::MatMul_105 f4 [20, 60]
000000 58 7d ae bd ad 06 15 be c9 bf 1f 3e 45 e9 6c 3e
       -0.08520001 -0.14553328 0.15600504 0.2313586
000010 f0 54 12 3d 48 67 9b 3b 25 17 8b be bb 0e 6e 3e
       0.035725534 0.0047425367 -0.27166095 0.23247807
000020 2b d3 75 bd a3 60 80 3e 58 aa da 3a 63 a1 23 3e
       -0.06001584 0.25073728 0.0016682846 0.15979533
000030 ed 86 27 3e b2 5c b1 bc 64 32 5a 3c 51 c1 38 bd
       0.16360064 -0.021650646 0.013317678 -0.045106236
000040 68 63 e3 bd d1 e2 90 bc 45 dd 7d be 03 81 69 be
       -0.111029446 -0.01768628 -0.24791439 -0.2280312
000050 1a 77 3a 3e e5 76 3a 3e b3 db 59 be a2 0d 59 be
       0.18209496 0.18209417 -0.21275215 -0.21196607
000060 ac b0 36 be f7 f0 1b be 4c 7e df bd 30 89 e9 3d
       -0.17840832 -0.1522864 -0.10912761 0.114031196
000070 ab 0c 33 be 54 a6 2b be 83 70 0c 3a 7b f2 1e 3d
       -0.17485301 -0.16762668 0.0005357342 0.038805466
000080 b4 68 07 be 0a 6b 86 3e 48 a1 48 be 94 f5 01 be
       -0.13223535 0.2625354 -0.19592774 -0.12691337
000090 ad ee 69 be 01 31 17 be 36 2f 3b be cb 01 e1 bb
       -0.22844954 -0.14764787 -0.18279728 -0.006866669
0000a0 19 41 82 3e 77 d7 8b be 55 5c ba bd 51 87 23 be
       0.2544029 -0.27312824 -0.09099642 -0.15969588
0000b0 ef 31 36 3e 7b 50 80 3e 78 75 16 be 0a ad 05 be
       0.17792486 0.25061402 -0.14693248 -0.1305429
0000c0 9e 51 53 3e 28 ac ef bc c6 ae 02 3e e1 e9 5a bd
       0.20636603 -0.029256895 0.12761983 -0.0534457
0000d0 b4 a7 81 3e 55 f3 79 3e fc ee 23 3d cf 81 8a 3e
       0.2532326 0.2440923 0.040022835 0.2705216
0000e0 d9 8b ab bb 43 c9 53 3e 59 69 91 3c 93 c7 4e be
       -0.005235177 0.20682244 0.017750429 -0.20193319
0000f0 3d 9b b1 3d 68 0f 86 bc 44 bd 4a bd b8 bb 21 3c
       0.086721875 -0.016364768 -0.049496904 0.009871416
000100 e7 87 2a be 73 d7 25 be c4 d0 bd bd 27 3b 86 3e
       -0.16653405 -0.16195469 -0.092683345 0.26217005
000110 4f 59 5f be ea 74 6e 3c 25 44 10 3d 75 a6 6a be
       -0.21811412 0.014554242 0.035221238 -0.22915061
000120 b5 5d 72 be a4 2d ea 3d 84 de dc bd 4e 5e 77 be
       -0.23668559 0.114344865 -0.10784629 -0.24157068
000130 ac 0d 24 be b5 ed 7a be b5 4e 55 be a4 c4 56 3e
       -0.1602084 -0.2450474 -0.20830806 0.2097345
000140 29 e8 78 3e de 10 94 bb 28 07 75 be 62 85 48 bd
       0.24307312 -0.0045186123 -0.23928511 -0.04895533
000150 67 3e 9e 3d 90 ba 5b 3b b6 e3 1e 3e 86 55 1e 3c
       0.07726746 0.0033527948 0.15516552 0.009663945
000160 23 d6 f2 bd e4 b7 5e be b2 96 f7 3d 45 21 ca bc
       -0.118572496 -0.21749836 0.1208929 -0.024674067
000170 a0 d8 b0 bd 2e f8 45 3e d3 5a e8 bd 1b 2c 3a 3e
       -0.08635068 0.19332954 -0.11345448 0.18180887
000180 c8 99 ec bd 44 96 c9 3d 6d e4 be bd e6 8d 0e be
       -0.11552769 0.09843114 -0.093209125 -0.13921317
000190 b5 9d 11 3e c3 07 17 be e5 01 49 be 87 43 c7 3d
       0.14220317 -0.14749055 -0.19629629 0.09729677
0001a0 56 77 6b 3e 91 99 97 bd 33 c6 5b 3c ff fc 14 be
       0.22994742 -0.07402337 0.013413954 -0.14549635
0001b0 ec 09 e3 3c 21 53 f6 bd 7c cf 9b bd 9b d1 65 3e
       0.027714692 -0.12027574 -0.07607934 0.2244324
0001c0 b1 a7 07 be 5b d2 88 3e 85 ed b7 bb 31 bb 15 be
       -0.13247563 0.26722988 -0.0056130313 -0.14622189
0001d0 be 40 6e bd 5b 46 89 3e 03 3e 13 be 07 8a 56 be
       -0.05816721 0.2681149 -0.14379124 -0.20951091
0001e0 9f 11 45 be 84 ca 8b 3d 08 a3 8b be 6f 86 35 be
       -0.19245003 0.06825736 -0.2727282 -0.17727064
0001f0 db f8 1c 3e c3 de 5d 3d 6b 04 45 bd 5a 22 55 be
       0.15329306 0.05416752 -0.048099916 -0.20813885
000200 6e b6 cb 3d 18 84 26 be cf 40 26 be a6 77 cd 3d
       0.09946905 -0.16261327 -0.1623566 0.10032587
000210 4c 65 b4 bd 7d a3 2d 3d 11 ea b2 3d d9 cc 86 3e
       -0.08808383 0.042392243 0.08736051 0.2632816
000220 eb 37 d4 3c 82 47 8b 3e ff d8 df 3d 86 84 55 3d
       0.02590557 0.27202994 0.109300606 0.052128337
000230 c3 64 bd bd 9f 18 ea bd 43 01 48 3e 43 4c 84 be
       -0.092477344 -0.11430477 0.19531731 -0.25839433
000240 8e ca fe 3d a3 2c 77 be af 89 d8 3d 4e f5 44 be
       0.12440978 -0.24138121 0.10573136 -0.19234201
000250 79 95 f4 bd 9b 0a f4 bb 0e 70 6f 3e 69 75 29 bd
       -0.11942572 -0.0074475533 0.23382589 -0.041371737
000260 aa fc 83 be 1e ff 2a 3d 7f 43 b8 3d c6 92 42 3e
       -0.25778705 0.041747205 0.08997249 0.19001302
000270 47 a2 69 be ae d2 1e 3e ff cd 49 3e ed 3c 98 3c
       -0.2281581 0.15510055 0.19707488 0.01858374
000280 2c a7 11 3e 66 89 92 3d 66 89 b8 3d a0 72 7a be
       0.14223927 0.07155113 0.09010582 -0.24457788
000290 28 ab 4a 3c 26 e6 2d be e2 e9 cb bd 95 9f 85 3e
       0.012369908 -0.16982326 -0.09956719 0.26098314
0002a0 51 63 7c 3e e7 90 1f be b8 64 4d be 97 80 0a be
       0.24647261 -0.1558262 -0.20057952 -0.13525616
0002b0 3d 4e c1 3d 67 b1 6e 3d 3e 42 72 be 9b 9c 88 3e
       0.09438751 0.058274653 -0.23658082 0.2668198
0002c0 b5 02 34 be 1d 86 17 be 6c ed 5c bc ef 90 ab bd
       -0.17579158 -0.14797254 -0.01348434 -0.08377253
0002d0 b6 4a 8a be b7 30 c5 bd c9 4d 16 3d 14 d1 5c 3c
       -0.27010125 -0.09628432 0.036695275 0.0134775825
0002e0 fd c7 06 bd 02 0e 79 be 9d 1e 6a be b5 37 43 3e
       -0.032905567 -0.2432175 -0.2286324 0.1906422
0002f0 5f 6f 46 3e 82 56 ae bd 39 84 25 3e 6e 8c 40 3c
       0.19378422 -0.08512594 0.1616372 0.011752231
000300 be e0 e0 3d 7c b2 24 3d 79 cc 82 ba d4 4e 98 3d
       0.10980366 0.04020928 -0.000997915 0.0743691
000310 00 34 81 be 28 4b 40 3e a5 7c 0a bd c3 b7 82 bd
       -0.25234985 0.1877867 -0.033810277 -0.06382706
000320 94 a3 28 be c1 af c7 3d 44 8f ac bd 3f 91 35 bc
       -0.1646865 0.09750319 -0.08425763 -0.011081993
000330 7f 02 0d be 42 ef 51 3e 72 35 59 bd bc 86 b7 3d
       -0.13770483 0.20501426 -0.053029485 0.089612454
000340 9c 3b b5 3d 30 21 00 3d ae 96 09 3e cf 1e bf bd
       0.0884926 0.03128165 0.13436386 -0.09332048
000350 12 b2 57 bd de 86 6c bc 0f 64 22 3e 12 c4 32 3e
       -0.052660055 -0.014436452 0.15858482 0.17457607
000360 e3 59 5b be 0a c3 27 3e e8 71 4c bd 15 77 07 be
       -0.21421008 0.16382995 -0.049913317 -0.1322902
000370 05 47 08 3e 8a 52 88 be f7 0b 41 3e 4e 52 c8 3c
       0.13308342 -0.26625472 0.1885222 0.024453308
000380 7f 6a 7f 3e 3b 96 71 bc e8 74 41 3d cf e8 45 be
       0.24942969 -0.01474529 0.04723063 -0.1932709
000390 6f 1b 4a 3e e9 3f 88 3e 85 64 8d bb d9 bc f1 3c
       0.19737028 0.2661126 -0.0043149614 0.029508995
0003a0 41 4f a7 bd 11 26 8b 3e 51 ad f8 3d ba e5 f0 3d
       -0.08169413 0.2717748 0.121424325 0.11762567
0003b0 9d 06 66 be a3 32 23 3e dc 98 83 be c2 47 be 3d
       -0.2246346 0.15937285 -0.2570256 0.092910305
0003c0 84 e9 37 3e 49 35 5b be 55 f2 6c be 7f 46 86 3e
       0.17960173 -0.21407045 -0.23139317 0.2622566
0003d0 39 c7 6a be c3 af 4c bd 91 65 51 be a6 cb 01 be
       -0.2292756 -0.049972307 -0.20448901 -0.12675342
0003e0 da 28 80 3e 57 12 98 bd 6f f5 1a 3e 00 d0 1e 3e
       0.25031167 -0.07425373 0.15132688 0.15509033
0003f0 65 03 b8 bd 5a 10 fd 3c ba 44 0e 3e 60 be ab 3d
       -0.089850225 0.030891586 0.13893405 0.083859205

onnx::MatMul_125 f4 [20, 20]
000000 f1 53 4a bc d2 fd 45 3e 4d 30 07 3e 88 9f 54 be
       -0.012349115 0.19335106 0.13202019 -0.20763981
000010 81 8f 49 ba 8f 09 52 be 91 67 8e bc ca 64 c6 3d
       -0.0007688925 -0.20511459 -0.017383369 0.09687193
000020 94 1a db bd cc 94 5d 3e e4 64 16 be 3e 03 de 3d
       -0.10698429 0.21638793 -0.14686924 0.10840462
000030 07 1e 0d be 42 93 60 be 6e 3d 3c 3e 28 b0 57 be
       -0.13780986 -0.21931174 0.18382809 -0.21063292
000040 a0 20 d2 3d 5b 68 83 3d d6 25 8d bd d0 ac 59 3e
       0.10260129 0.064163886 -0.06891982 0.21257329
000050 03 fa 41 3d fd 6f 13 be 0a db 25 be f7 f2 16 3e
       0.04735757 -0.14398189 -0.16196838 0.14741121
000060 b3 13 35 3e 37 89 2a bd 0b 1b fc 3d 5d 7b 9a 3d
       0.17683296 -0.041634765 0.123098455 0.07543061
000070 d0 97 f2 3d 70 14 95 3d 6e 87 3b 3e db 60 ca bd
       0.11845362 0.07279289 0.18313381 -0.09881755
000080 03 c6 0b be 71 eb 5d 3c 33 13 b6 bd 3c 01 aa bd
       -0.13649754 0.013544903 -0.08890381 -0.08301017
000090 95 9c 75 3d 59 61 3c 3e 22 f7 1c 3e cc 2e 53 be
       0.05996378 0.1839651 0.15328649 -0.2062332
0000a0 10 9b 23 3d 83 13 29 3e 06 29 11 3e 64 be 00 3e
       0.0399428 0.1651135 0.14175805 0.12572628
0000b0 f0 d5 67 3d 34 45 14 be a2 f5 4b be ca 04 4c 3e
       0.05660051 -0.14479524 -0.1991792 0.19923702
0000c0 df 94 f0 bd e5 1f 8a bd eb 4b 94 3d 5b 8b 8e bd
       -0.11747145 -0.06744365 0.07241043 -0.06960174
0000d0 fa 17 c3 bd a1 7b e6 3d ac 2c da 3c 3b 64 37 3e
       -0.095260575 0.11254049 0.02663263 0.17909329
0000e0 49 95 a7 bd f6 91 12 be 6b 39 2b 3c 01 7c 16 3e
       -0.08182771 -0.14313492 0.010450701 0.14695741
0000f0 75 f5 20 be 0b 16 c2 3d 3a 37 35 be ec fc b5 bd
       -0.15718634 0.094768606 -0.17696849 -0.08886132
000100 10 aa 80 3d 3a 87 06 be b4 cd 42 be 66 98 22 3e
       0.06282437 -0.13137522 -0.19023782 0.15878448
000110 a0 51 6a 3d 52 51 80 3d 0a bb a3 bc bd 52 2b bd
       0.05720675 0.062655106 -0.019986648 -0.041826952
000120 35 15 42 3c 01 b4 65 bd 54 cf 62 be a1 3a 13 be
       0.011845876 -0.05607987 -0.22149402 -0.14377834
000130 68 6c a7 3d 81 a7 d3 3c 8e 05 3a be 50 78 2a 3e
       0.08174974 0.025836708 -0.18166181 0.16647458
000140 e2 a2 4b be 5f 7c 59 be 9d 7d 13 be 0f c6 55 3e
       -0.19886354 -0.2123885 -0.14403386 0.20876335
000150 c1 85 da bd da a2 3d 3e 36 59 3b 3e 52 ae 50 3d
       -0.10670043 0.18519154 0.1829575 0.050947495
000160 63 36 e3 bd 04 81 52 bc 60 7e 1d be 8a f3 1b 3e
       -0.11094358 -0.012848143 -0.1538024 0.15229622
000170 5a 3a b1 3d eb 24 c4 bd f6 67 42 be 6b e7 20 be
       0.08653708 -0.09577354 -0.1898497 -0.15713279
000180 68 b6 46 bd b0 2f 3a bc af f8 9c bd 62 34 58 3d
       -0.0485138 -0.011363909 -0.0766462 0.05278433
000190 7c 53 eb bd b3 88 c1 3d d1 54 a0 bb bd 2f 27 3e
       -0.11490533 0.094499014 -0.0048929234 0.16326804
0001a0 0e 29 ea bd b3 1d e5 3d ca a6 19 be 65 ee 99 3c
       -0.11433612 0.11187305 -0.15005031 0.018790433
0001b0 43 9a 62 3e 45 5e 51 be 35 43 d6 bd 89 1c 88 3d
       0.22129159 -0.20446117 -0.104620375 0.06646068
0001c0 f6 f4 f5 3d 89 1d 2b 3e a1 f3 c3 bd f3 f0 4e 3d
       0.12009613 0.16710486 -0.09567953 0.050522756
0001d0 a4 c4 10 be 3c f0 9f 3d d9 e4 4f 3d 7d 47 50 3c
       -0.14137512 0.07809493 0.050755356 0.012712357
0001e0 52 c8 97 3c 76 b0 d9 bc ea 12 55 be 03 b4 53 3e
       0.018528137 -0.026573401 -0.20807996 0.20674138
0001f0 6d 97 aa bd 1e 8b 5c be 72 9a ee bd 50 9d 78 3d
       -0.083296634 -0.21537444 -0.11650552 0.0606969
000200 00 bb 2a be 51 62 c7 3d d3 03 00 be c7 d7 98 3d
       -0.16672897 0.09735549 -0.12501459 0.07463031
000210 77 7b 1c be db 7b 4a 3d 14 57 23 3e cb 20 69 bd
       -0.15281473 0.049434524 0.15951186 -0.05691604
000220 eb e4 c0 3d 65 3e 5a bb 28 9d 60 3c 1e bd b0 bd
       0.09418663 -0.003330135 0.013709344 -0.08629821
000230 6d 43 4b bd 3d b9 5e 3e dc 7e 05 bd b7 49 03 be
       -0.04962485 0.2175035 -0.032591686 -0.12821089
000240 01 7f 0a 3e fd 1e 8c 3d 48 81 02 be 47 e9 a7 bd
       0.1352501 0.06841848 -0.1274463 -0.08198791
000250 6b cc b0 bd 15 db 53 3e 7d 94 5e be 11 36 13 3e
       -0.0863274 0.20689042 -0.21736331 0.14376093
000260 b5 9b 24 be e5 a2 55 bd dd 67 32 3e 9f c6 d0 3d
       -0.16075023 -0.0521573 0.17422433 0.10194134
000270 67 43 1b 3e 09 23 02 be c9 34 4b 3e 4a a0 fe bc
       0.1516243 -0.12708677 0.19844355 -0.031082291
000280 03 30 85 3d 6e 1c 2a be c6 70 23 be 58 21 56 3d
       0.06503298 -0.16612408 -0.15960988 0.052277893
000290 e5 4b 02 3e b9 e7 a7 3d 73 b3 0c 3e 41 56 5d 3e
       0.12724264 0.081984945 0.1374033 0.21614935
0002a0 f0 16 23 3e 5c b9 df 3c 17 a6 8d bc 6a 97 94 bd
       0.15926719 0.027310066 -0.017291112 -0.072554424
0002b0 b6 73 63 3e 42 7e 39 be aa e5 bb bd f8 d8 5d be
       0.22212109 -0.1811457 -0.09174664 -0.21664798
0002c0 10 7a 56 be a3 9b 5a 3c 63 2d a5 bb cf 38 0c 3e
       -0.20945 0.013342771 -0.005040811 0.13693546
0002d0 0f 4e 05 3d 44 b6 08 3c 3e 24 e7 3d 63 15 c9 bd
       0.032545146 0.008344237 0.112862095 -0.09818532
0002e0 55 25 22 bd 35 93 41 3d 23 4a 39 3e 72 d3 b5 3c
       -0.039586384 0.04725953 0.18094687 0.022195552
0002f0 ae 5e dc bd fb 57 d8 3d ca 44 aa 3b 83 34 46 be
       -0.10760246 0.10563656 0.0051961886 -0.19355969
000300 72 ba 20 3c 29 c7 08 be 92 bc 5d 3d dd 9d f3 bd
       0.009810077 -0.13357224 0.054134913 -0.118953444
000310 16 5d fa 3d cf cd 77 3d 2a 66 ee 3d 81 47 3a be
       0.12224786 0.06049901 0.1164058 -0.18191339
000320 17 4a d1 bd 6f 2b a7 bc 60 2c e7 bd e0 77 c3 bd
       -0.1021921 -0.020406453 -0.11287761 -0.09544349
000330 6d 52 e4 3d b7 6d 1e 3e ff 00 3e 3e ee 5b 19 bd
       0.11148534 0.1547154 0.18555067 -0.037441187
000340 ac f6 da 3d 22 52 de bd 88 aa b9 3d 70 86 da bd
       0.1069158 -0.10855509 0.090657294 -0.10670173
000350 95 84 b6 3d a1 f4 07 3e 15 39 e8 bd 83 b0 5b be
       0.08912007 0.13276912 -0.113390125 -0.21454053
000360 4c 1d d8 bd f3 2a 6e 3d c0 c3 51 be 20 62 ef 3d
       -0.10552463 0.05814643 -0.20484829 0.11688638
000370 2f 67 31 3e 78 14 30 3e a0 a7 13 be e7 f8 0e be
       0.17324518 0.17195308 -0.14419413 -0.13962136
000380 e7 14 38 3e 4c 80 aa bd cd 87 f6 3d d5 43 97 3d
       0.17976724 -0.08325252 0.12037621 0.07385985
000390 fc be 03 be 42 d6 24 3e a2 23 40 be 4a 23 6d bd
       -0.12865824 0.16097358 -0.18763593 -0.057894982
0003a0 03 4d 14 be 62 37 97 bd 45 e9 4d be cf 6a 5b be
       -0.14482503 -0.0738361 -0.20108517 -0.21427463
0003b0 bb 06 2c be 32 ba 44 be 70 54 55 be 7d df 34 be
       -0.16799442 -0.19211653 -0.20832992 -0.17663379
0003c0 dd 93 c9 3c fa 8b 4a 3e 4f d6 dc 3d 88 4f 49 3e
       0.02460664 0.1977996 0.107830636 0.19659245
0003d0 a0 b0 35 be 19 61 23 be 67 51 0f 3a 5e 17 e6 3d
       -0.17743158 -0.15955009 0.0005467147 0.11234926
0003e0 5f 48 9d 3c 96 6e 89 bd 28 10 92 bd 91 97 93 3d
       0.019199548 -0.06710546 -0.07131988 0.072066434
0003f0 9c f8 12 3d 55 2c 0a 3e c8 48 fb bd 2f a5 29 3e
       0.035881624 0.13493474 -0.12269741 0.16566919
